learned_scms/synthetic/linear_1.0_linear+seasonal__mlp_f3.pth (torch, 2472 bytes, 3 tensors)

linear1.weight f4 [5, 4]
00000000: 701e 8ebe d5d4 10bd f6eb 1fbe 4317 d83c
00000010: 20a6 cc3e 23b1 ca3d 6bd4 123e 98c8 fbb8
00000020: ef79 633d 522f 9dba c856 30bb 5b11 5fbf
00000030: 80b7 943e 1ca3 5f3d 8390 263e cc58 cabc
00000040: d9e2 6e3e 4853 283d 2751 813d 36d0 e3bc
-0.27757597 -0.035359222 -0.15617356 0.02637828 0.39970493 0.098970674 0.14338844 -0.00012005976
0.055536207 -0.0011992252 -0.0026907194 -0.8713586 0.2904625 0.054598913 0.16266064 -0.024700545
0.23328723 0.04109505 0.06314307 -0.027809244

linear1.bias f4 [5]
00000000: fa11 39c0 afea 8dbf d461 75be c421 fe3e
00000010: cb89 cc3f
-2.8917222 -1.1087245 -0.239631 0.49635136 1.5979551

linear2.weight f4 [1, 5]
00000000: fc21 b9bf 529f 863f 88c3 cf3f f1ba 943f
00000010: 14fb 853f
-1.4463496 1.0517371 1.6231546 1.161955 1.0467248
