learned_scms/synthetic/linear_1.0_seasonal__mlp_f1.pth (torch, 2352 bytes, 3 tensors)

linear1.weight f4 [5, 2]
000000 65 9d e7 be e5 24 15 bc 76 43 12 bd 67 b2 98 bf
       -0.4523727 -0.009103035 -0.035708867 -1.1929444
000010 2f 31 60 3f bf 69 5b 3b 90 f6 0b be bd 8c 7c 3f
       0.8757505 0.0033479778 -0.13668275 0.9865225
000020 e0 c0 1c bf 9d ae a0 3a
       -0.61231804 0.001225907

linear1.bias f4 [5]
000000 0d 0a 07 c0 c6 6c 1c c0 73 41 d7 bf a5 a2 01 40
       -2.1099885 -2.444139 -1.6816849 2.025552
000010 29 45 38 bf
       -0.7198053

linear2.weight f4 [1, 5]
000000 ab b5 7e bf 43 9f 09 3f c0 59 2a 3f 80 18 0b bf
       -0.99495953 0.5375864 0.665432 -0.5433426
000010 ac 2f 65 bf
       -0.89525867
