learned_scms/synthetic/linear_1.0_linear__mlp_f3.pth (torch, 2400 bytes, 3 tensors)

linear1.weight f4 [5, 4]
000000 e7 1f 9c be 91 63 2c bd 2b 59 51 be 52 42 b7 3d
       -0.3049309 -0.04208714 -0.20444171 0.089481965
000010 e3 5a a3 3d 03 04 c7 3b cd ef 51 3e 65 88 68 3f
       0.0797632 0.0060734763 0.20501633 0.9083312
000020 53 d3 aa 3e 17 83 2f 3d 20 b0 23 3e a5 e8 e6 bc
       0.33364353 0.042849626 0.15985155 -0.028187105
000030 d7 6d a3 3e de fa 92 3d 14 40 38 3e 03 75 29 bd
       0.3191974 0.07176755 0.17993194 -0.041371357
000040 2c c6 d3 3e e1 d4 46 3d 29 1d a5 3d 84 76 a6 bc
       0.4136213 0.04854286 0.080622025 -0.020320185

linear1.bias f4 [5]
000000 d6 c6 7c 3f 0a e9 f2 3f 4a e2 1c 40 72 c1 65 3f
       0.987409 1.8977368 2.4513116 0.897483
000010 87 ce 35 be
       -0.17754565

linear2.weight f4 [1, 5]
000000 e5 e0 ef be fc 59 ee be 91 ab ca 3f 71 0f 7a 3f
       -0.46851268 -0.46553028 1.5833608 0.9767981
000010 ff 6b 36 3f
       0.7125854
