learned_scms/synthetic/linear_1.0_seasonal__mlp_f3.pth (torch, 2416 bytes, 3 tensors)

linear1.weight f4 [5, 4]
000000 fa d8 39 3f 37 7b 59 3d b6 0d 6d 3e bb c2 63 3d
       0.72596705 0.053096022 0.23149762 0.05560563
000010 f6 37 10 3f 85 bf a1 3d 23 b6 9d 3e 4c 2c 5e bc
       0.5633539 0.078978576 0.30803022 -0.013560366
000020 91 06 b2 3d d3 22 91 bd 16 62 8c bd 96 e3 a4 bf
       0.08692659 -0.0708672 -0.06854646 -1.2881954
000030 06 d5 61 be d7 ad b5 3d c6 b7 b6 3d 2d be 95 bf
       -0.22053918 0.08871048 0.08921771 -1.1698662
000040 79 53 52 3f 60 c6 09 3e 48 95 c0 3e a4 b0 03 3c
       0.8215862 0.1345458 0.37613893 0.00803772

linear1.bias f4 [5]
000000 df fd 68 3f 78 40 fc 3f a2 2c 20 3f 3b d1 24 bf
       0.91012377 1.9707174 0.62568104 -0.6438176
000010 7c 3c a6 be
       -0.3246802

linear2.weight f4 [1, 5]
000000 b8 47 8b 3e a3 f7 30 3f 54 a5 15 3f 22 0a 13 3f
       0.27203155 0.69127864 0.58455396 0.57437336
000010 c4 57 28 3f
       0.6575892
