learned_scms/synthetic/linear_1.0_linear__mlp_f2.pth (torch, 2400 bytes, 3 tensors)

linear1.weight f4 [5, 3]
000000 cb 24 0c bf 73 d6 8a 3e 7e 55 7e ba e4 c7 d4 be
       -0.5474364 0.27116737 -0.00097020704 -0.41558754
000010 ac 2e 1d bd 12 40 8f 3e 7e 68 f5 be 59 36 78 3e
       -0.038374588 0.2797857 -0.47931284 0.24239482
000020 a2 71 73 3a 01 3a ca be cb d6 4c 3e 5e e6 9c 3a
       0.0009286647 -0.39497378 0.20003812 0.001197051
000030 f1 8e ce be a0 1b 47 3d 22 ac 50 bf
       -0.4034343 0.04861033 -0.81512654

linear1.bias f4 [5]
000000 a5 82 97 bf da ec 3a 40 8b 28 f0 3e ea c1 f0 3f
       -1.1836745 2.9207063 0.46905932 1.8809178
000010 c4 54 20 c0
       -2.5051737

linear2.weight f4 [1, 5]
000000 2a 6b 58 bf 8f 04 1e 3e f5 a1 41 bf 6a 15 9e bf
       -0.8453852 0.15431426 -0.7563775 -1.2350285
000010 d9 52 85 be
       -0.2603977
