learned_scms/synthetic/non-linear_1.0_seasonal__mlp_f2.pth (torch, 2448 bytes, 3 tensors)

linear1.weight f4 [5, 3]
0	0xbc8d07b4	-0.017215587
1	0xbf865401	-1.0494386
2	0xba397349	-0.0007074369
3	0xbec86543	-0.39139757
4	0x3eb3f77c	0.35149753
5	0x3f89f8cf	1.0779055
6	0xbee56f56	-0.44811505
7	0xbd2851e5	-0.041093726
8	0xba49d289	-0.00076989137
9	0xbe35db81	-0.17759515
10	0x3e6c298b	0.23062722
11	0xbf519b9a	-0.81878054
12	0xbefb0be2	-0.49032503
13	0xbd98f7be	-0.07469128
14	0xb8235e00	-3.8949773e-05

linear1.bias f4 [5]
0	0xbc5ca520	-0.013467103
1	0x40109448	2.2590504
2	0xbef477d9	-0.47747687
3	0xbffd607d	-1.9795071
4	0x3fac62b2	1.346762

linear2.weight f4 [1, 5]
0	0xbfaf5734	-1.3698487
1	0x3e25d89d	0.16195913
2	0xbf8a2b1e	-1.0794408
3	0xbe9a0394	-0.30080855
4	0xbf6d9a2f	-0.9281339
