learned_scms/synthetic/non-linear_1.0_linear+seasonal__mlp_f3.pth (torch, 2504 bytes, 3 tensors)

linear1.weight f4 [5, 4]
000000 12 cd 29 3e 44 11 dd 3d b6 55 8b be 62 8a d7 bc
       0.16582134 0.10794309 -0.2721383 -0.026311103
000010 32 f2 13 3c d4 90 16 be 42 7e 57 3f 89 f5 09 bb
       0.009029912 -0.14703685 0.8417703 -0.0021050891
000020 93 a9 58 3e 19 20 20 3e bf 99 bb be a6 c4 72 bf
       0.21158437 0.15637244 -0.36640736 -0.9483131
000030 fc d6 50 3c 5c 8a 85 39 35 9d 97 3d c6 57 89 bf
       0.012746569 0.00025470823 0.07403032 -1.0729911
000040 e7 b6 0c 3e 67 2a 9e 3d 8c e2 32 be 52 4b 0a bd
       0.13741647 0.07722931 -0.17469233 -0.033763237

linear1.bias f4 [5]
000000 7c ce db 3f 37 aa ec bf 44 a1 76 3f 81 52 8c bf
       1.7172389 -1.8489445 0.9633982 -1.0962678
000010 4e 81 4f 40
       3.2422671

linear2.weight f4 [1, 5]
000000 e3 80 2b 40 9f 89 48 40 ed 89 2d 40 ee 85 2f 40
       2.6797416 3.1333997 2.7115433 2.7425494
000010 b4 27 67 40
       3.6117983
