learned_scms/synthetic/non-linear_1.0_seasonal__mlp_f3.pth (torch, 2448 bytes, 3 tensors)

linear1.weight f4 [5, 4]
00000000: 69ae b5be 2984 73be 835b b23e 9cfe b23f
00000010: ac92 7e3e 3b42 223e 02cf b7be a83f 7cbb
00000020: f6e6 9b3e 627c c53d 0dc2 dbbe ae8e 02c0
00000030: eee4 9e3c 6f5b 9e3e ed86 2dbe d3f8 fabf
00000040: bb89 373c d36f 3abe 10b1 753f dece 443a
-0.35484627 -0.23780884 0.34835443 1.3983951 0.24860638 0.15845577 -0.35900122 -0.003849009
0.30449647 0.09642865 -0.42921486 -2.0399585 0.019396272 0.30929133 -0.16946001 -1.9607185
0.011202271 -0.1820672 0.959733 0.0007507632

linear1.bias f4 [5]
00000000: 0f86 5abf 2c22 b03f 3a44 0540 d544 aa3f
00000010: 9606 0ec0
-0.8536081 1.3760428 2.0822892 1.3302256 -2.219152

linear2.weight f4 [1, 5]
00000000: 8422 33be dd59 0f40 c6e1 743f 3cdc 643f
00000010: f68a 3640
-0.17493635 2.2398598 0.95657 0.8939855 2.8522315
