learned_scms/synthetic/non-linear_1.0_linear__mlp_f3.pth (torch, 2432 bytes, 3 tensors)

linear1.weight f4 [5, 4]
00000000: 2624 8dbd e20a 6ebf ffe5 4b3f a27f 0abc
00000010: 6320 ebbb c649 7bbe f06d 0340 dd39 673b
00000020: 1802 1c3e 90c6 b6bd 4c8a e13d 8436 17bd
00000030: 7cea 5fbb cbcf d6bd cfe4 2e3f 1c6c 9abb
00000040: 176b 243e 074e 8dbd 1135 663d dc07 15bd
-0.068916604 -0.92985356 0.7964782 -0.008453282 -0.0071754917 -0.24539861 2.053585 0.0035282292
0.15235174 -0.089245915 0.11012706 -0.036917225 -0.0034166863 -0.10488852 0.68317884 -0.0047125947
0.16056477 -0.06899648 0.05620295 -0.03638445

linear1.bias f4 [5]
00000000: 1a14 23c0 ccd2 cd3f a557 1b40 26a8 f9bf
00000010: 6739 d83e
-2.548102 1.6079955 2.4272244 -1.950444 0.42231295

linear2.weight f4 [1, 5]
00000000: 7dd3 8bbf c1fa 0ebf 7ee4 3640 6b05 5240
00000010: 6721 3940
-1.0923916 -0.5585137 2.857696 3.2815807 2.8926637
