learned_scms/synthetic/non-linear_1.0_linear+seasonal__mlp_f1.pth (torch, 2504 bytes, 3 tensors)

linear1.weight f4 [5, 2]
000000 18 11 fe be 38 da 4d b9 7b d2 8f 3c 74 6c 71 bf
       -0.49622416 -0.00019631616 0.01755642 -0.9430611
000010 17 fa 31 bf 12 9f 19 3f 65 74 46 bf 34 b8 63 3d
       -0.6952223 0.6000835 -0.77521354 0.05559559
000020 83 be 0a bf da 8b a4 3b
       -0.5419695 0.0050215544

linear1.bias f4 [5]
000000 86 ba e7 bf 75 80 8d bf 74 56 0c bf 3c 17 08 40
       -1.8103797 -1.1054827 -0.54819417 2.126418
000010 ef 71 9c 3e
       0.30555674

linear2.weight f4 [1, 5]
000000 a2 3f 9b bf 5d 6c 18 3f 5d 84 b0 3d ea d3 0b bf
       -1.2128794 0.5954035 0.08618996 -0.5462023
000010 59 85 7a bf
       -0.9785972
