learned_scms/loan/loan_1.0_linear_mlp_f2.pth (torch, 2440 bytes, 3 tensors)

linear1.weight f4 [10, 4]
0.15202476 -0.048143286 0.8834047 -0.0076966356 -0.090873025 0.011543057 0.023304913 0.01964734
0.39467454 -0.49274263 -0.084858686 0.00089708244 0.35561642 0.59209764 -0.07416843 0.0046402114
0.050234463 -0.038013473 -0.9987547 -0.010361671 0.0995643 0.02229215 0.026602652 0.3633305
-0.6314906 -0.14418235 0.105584405 -0.0033885834 -0.20474167 -0.005688622 0.7875219 -0.0020675363
0.05100641 -0.067212954 -0.9317269 0.0016303931 0.026605312 -0.059816472 -0.9325946 0.0076279473
00000000: 61ac 1b3e e531 45bd cf26 623f 0f34 fcbb
00000010: a31b babd 171f 3d3c f2e9 be3c 75f3 a03c
00000020: c812 ca3e c348 fcbe 64ca adbd 2f2a 6b3a
00000030: 5b13 b63e b693 173f 9ee5 97bd ea0c 983b
00000040: a7c2 4d3d 04b4 1bbd 63ae 7fbf 00c4 29bc
00000050: 5ee8 cb3d 079e b63c ceed d93c 7506 ba3e
00000060: 5ea9 21bf 8aa4 13be a33c d83d ff12 5ebb
00000070: cda7 51be 9f67 babb 099b 493f 817f 07bb
00000080: 19ec 503d f2a6 89bd a785 6ebf eab2 d53a
00000090: 62f3 d93c 1e02 75bd 85be 6ebf dcf3 f93b

linear1.bias f4 [10]
1.5936633 0.711601 -0.77923834 -0.77883524 -1.0772362 1.4546268 -1.3100935 -2.1184702
2.5027287 2.316486
00000000: 29fd cb3f 7c2b 363f 2a7c 47bf bf61 47bf
00000010: e0e2 89bf 3631 ba3f 25b1 a7bf 0495 07c0
00000020: b52c 2040 4e41 1440

linear2.weight f4 [1, 10]
0.6890588 -0.62621224 0.7133139 0.8486518 -0.6744632 -0.726772 -0.46319336 -0.45624647
0.43690124 0.48607957
00000000: 2866 303f 724f 20bf bd9b 363f 3f41 593f
00000010: 9fa9 2cbf bb0d 3abf ae27 edbe 2399 e9be
00000020: 85b1 df3e 6cdf f83e
