learned_scms/loan/loan_1.0_linear_mlp_f5.pth (torch, 2440 bytes, 3 tensors)

linear1.weight f4 [10, 3]
0	0x3db20d20	0.0869391
1	0xbf05547f	-0.52082056
2	0xbc9bbf9b	-0.019012263
3	0x3d3afe6b	0.045652788
4	0x3d2954fe	0.04134082
5	0x3eb97714	0.36223662
6	0xbdffb545	-0.12485746
7	0xbf35a121	-0.7094899
8	0xbc89fd08	-0.016844288
9	0x3ead1e1e	0.3381204
10	0x3f262a4c	0.6490829
11	0xbf48b34d	-0.7839859
12	0x3e5ff65b	0.21871321
13	0x3e62972e	0.22127983
14	0x3c147c7d	0.009062883
15	0xbc9bf259	-0.019036459
16	0xbf1c9c97	-0.6117644
17	0x3c13f650	0.009030893
18	0xbf3807be	-0.71886814
19	0xbd60ea60	-0.054911017
20	0xbda880cd	-0.08227692
21	0x3de68aaa	0.11256917
22	0x3e8e4255	0.27784982
23	0x3bd5c95d	0.0065242485
24	0x3d33506d	0.043777872
25	0x3ea210eb	0.31653532
26	0x3b9a69dc	0.0047123265
27	0x3ce813f5	0.028329829
28	0x3ea35630	0.31901693
29	0x3ba242d5	0.0049518147

linear1.bias f4 [10]
0	0xbf6b030f	-0.9180154
1	0xbe077571	-0.13228394
2	0x400ad6f3	2.1693695
3	0xbe9d5c52	-0.30734497
4	0x3ea84751	0.3286691
5	0x3f492e81	0.78586584
6	0xbf3f3ffa	-0.74706995
7	0xbe879c6f	-0.26486537
8	0xbe66aa73	-0.22525959
9	0x3f10d93a	0.5658146

linear2.weight f4 [1, 10]
0	0xbeee55f8	-0.46549964
1	0xbd34c15b	-0.04412971
2	0xbf192b08	-0.59831285
3	0x3d922c5a	0.07137366
4	0x3ee2dab7	0.4430749
5	0xbf10da5c	-0.5658319
6	0xbd3fbb0f	-0.046809252
7	0x3ece5010	0.40295458
8	0x3ed2880d	0.41119424
9	0x3f3897d3	0.72106665
