learned_scms/loan/loan_1.0_linear_mlp_f1.pth (torch, 2440 bytes, 3 tensors)

linear1.weight f4 [10, 4]
000000 97 ca 3d 3c 9d ad d1 3d 03 3b 1e be 2f 8f 8b bf
       0.011583946 0.10238192 -0.15452199 -1.0903071
000010 e2 de 8d 3e 1d 5b da 3e 56 b6 3e 3e 43 ae 88 bb
       0.2770911 0.4264764 0.18624243 -0.0041711642
000020 ba d9 80 3e af a0 25 3f 6c 72 6c 3d 64 76 2d bb
       0.25166112 0.6469831 0.05772631 -0.0026468271
000030 d4 3c b6 be d8 16 92 be f1 a7 11 be 59 95 b4 3b
       -0.35593283 -0.28533053 -0.14224221 0.0055109677
000040 62 6e 88 3e 11 9a 6f 3f 4b 94 af bc fe 2b b7 3b
       0.26646715 0.9359446 -0.021433016 0.005589961
000050 6f 2c 1b 3d b9 fa 4c 3e 5e 86 bd bd f1 cf 53 3f
       0.037884172 0.20017518 -0.09254144 0.8273917
000060 80 a0 f0 bc a6 55 c1 bd 6c 8e 74 3f 91 33 95 bb
       -0.029373407 -0.09440164 0.9552982 -0.0045532663
000070 c4 80 9d be f8 a3 cf be 0f e1 01 be a0 c5 1a ba
       -0.30762303 -0.40554786 -0.1268351 -0.0005904082
000080 f8 ac 5f be 35 ff 08 bf 87 ef 23 bf cb e8 2f bc
       -0.21843326 -0.53514415 -0.64037365 -0.0107366545
000090 bb 8e e9 be 6d b5 a7 3f 92 96 3b be 73 d8 cc bb
       -0.45616707 1.3102242 -0.18319157 -0.0062513887

linear1.bias f4 [10]
000000 0f 88 d7 be af 27 32 bf ab ce 9e 3e 44 c5 93 bf
       -0.42095992 -0.695918 0.3101705 -1.1544576
000010 90 6e c3 3c ea 8e a2 3e f8 5d a7 3d de b4 09 3e
       0.023856431 0.3174966 0.0817222 0.13447902
000020 9c c8 84 3c 37 1a 6c bd
       0.01620894 -0.057642188

linear2.weight f4 [1, 10]
000000 b2 1a 8b 3e fa 27 c3 3e d9 63 0a 3f 83 62 a6 be
       0.27168804 0.38116437 0.54058605 -0.32497033
000010 33 85 22 3f 02 61 50 be 59 a4 e8 3e 03 78 e7 be
       0.63484496 -0.20349506 0.45437887 -0.4520875
000020 dc 26 7f be e8 84 1f bf
       -0.24917167 -0.62312174
