learned_scms/loan/loan_1.0_linear_mlp_f4.pth (torch, 2504 bytes, 3 tensors)

linear1.weight f4 [10, 5]
0	0x3d8a09cd	0.067401506
1	0x3d595eb2	0.053068824
2	0x3e479fbb	0.19494526
3	0xbec16c45	-0.37777916
4	0x3bf325b7	0.0074202674
5	0x3c96e092	0.01841763
6	0xbee71795	-0.4513518
7	0x3d2a3f64	0.04156436
8	0xbea7cf25	-0.32775226
9	0xbf79c9df	-0.97573656
10	0x3dd78aa0	0.105244875
11	0x3e8ebbb7	0.2787759
12	0x3f8fc0d3	1.123072
13	0xbe80e3f7	-0.25173923
14	0x3c280462	0.010254951
15	0x3ca50e4b	0.020148417
16	0x3f0191c9	0.50613075
17	0x3df5c609	0.12000663
18	0xbebfb9ae	-0.3744635
19	0x3b87f14f	0.0041486393
20	0xbda41dc6	-0.08013491
21	0xbee277fa	-0.4423216
22	0x3f400fff	0.7502441
23	0x3ee9a764	0.4563552
24	0xbbd8e10b	-0.006618624
25	0x3e2b5040	0.16729832
26	0xbf441404	-0.7659304
27	0xbe0fb08c	-0.14032191
28	0x3c059111	0.008152262
29	0x3efd846f	0.495151
30	0xbcd85e89	-0.026412265
31	0x3ea33440	0.318758
32	0x3e03a425	0.12855585
33	0xbf161a2d	-0.5863369
34	0x3bd2fcca	0.006438826
35	0xbe1603ab	-0.14649837
36	0x3d7a95eb	0.06117813
37	0xbc97ac42	-0.018514756
38	0xbdaf27c2	-0.08552505
39	0x3c181cbd	0.0092841955
40	0x3d3d057a	0.0461478
41	0xbecd37b0	-0.4008155
42	0xbceba37e	-0.028764483
43	0x3eeedeb5	0.46654287
44	0x3b35b941	0.0027728828
45	0xbd45647e	-0.04819154
46	0xbeebe8ff	-0.460762
47	0xbdbdf28e	-0.09274779
48	0x3efa6cec	0.48911226
49	0xbc4b78a7	-0.0124189025

linear1.bias f4 [10]
0	0xbecb30ab	-0.39685568
1	0x3eb3246f	0.34988734
2	0xbe95e97b	-0.29279694
3	0x3eba0fc6	0.3634016
4	0xc00f512f	-2.23933
5	0x3f97e071	1.1865369
6	0x3f79b5e7	0.97543186
7	0xbea94f42	-0.3306828
8	0x3f8cfb92	1.1014273
9	0x3fa06d69	1.2533389

linear2.weight f4 [1, 10]
0	0xbf2add02	-0.6674348
1	0xbf3c8811	-0.7364512
2	0xbeed4452	-0.46341187
3	0xbf95e1e0	-1.1709557
4	0x3f0444ee	0.5166768
5	0xbe4b4fd4	-0.19854671
6	0xbf6e4301	-0.9307099
7	0xbecc62d7	-0.3991916
8	0x3f84cdb9	1.0375282
9	0x3f8125ca	1.0089657
